data.pth (torch, 7658 bytes, 6 tensors)

l1.weight f4 [8, 99]
0	0xbd81cbe1	-0.06337715
1	0xbdca8610	-0.09888852
2	0x3f00fa97	0.5038237
3	0x3edb80e5	0.42871776
4	0x3f07087f	0.5274734
5	0xbea29900	-0.31757355
6	0x3f4ffeb9	0.8124805
7	0xbe92d2b2	-0.28676373
8	0xbc8d4b7b	-0.017247906
9	0x3d24db51	0.04024822
10	0x3ce28899	0.027653025
11	0x3e98f2ef	0.29872844
12	0xbe93f448	-0.2889731
13	0xbec3124b	-0.38099894
14	0xbd47c95e	-0.048776023
15	0xbda8abed	-0.08235917
16	0x3eb6dc0e	0.35714763
17	0xbeb11e7a	-0.34593564
18	0xbd41b005	-0.047287006
19	0xbc87d48e	-0.016580846
20	0xbd11a0de	-0.035553806
21	0x3e5be0c1	0.21472456
22	0xbe2cacb4	-0.16862756
23	0x3f4d28e6	0.8014053
24	0x3f15a02d	0.58447534
25	0x3f411e7d	0.75437146
26	0xbf0b0173	-0.54299086
27	0xbb4365d8	-0.0029815342
28	0x3d6b3c2b	0.057430428
29	0x3e874c97	0.2642562
30	0xbebea429	-0.3723462
31	0x3ed6b895	0.419377
32	0x3eef1ffd	0.46704093
33	0x3f1b7670	0.60727596
34	0x3edf6477	0.43631336
35	0x3e8a5598	0.27018428
36	0x3e5c6084	0.21521193
37	0x3d28a5b7	0.041173663
38	0x3e7b67c9	0.2455131
39	0x3e05f80a	0.130829
40	0x3ee20d7d	0.44150916
41	0xbe3c8751	-0.18410994
42	0x3e9e5fd9	0.309325
43	0xbf6c2063	-0.9223692
44	0xbddacdd7	-0.10683792
45	0xbd5485f8	-0.051885575
46	0x3ce5c82c	0.028049551
47	0x3edb1450	0.42788935
48	0x3d14bc39	0.036312316
49	0x3e54c8eb	0.20779769
50	0x3ea780b3	0.32715377
51	0x3ea9e90e	0.3318562
52	0x3e96eacd	0.29476014
53	0xbdf191e9	-0.11795408
54	0xbe04871a	-0.12942162
55	0xbe18b720	-0.14913607
56	0xbe69d3ea	-0.22834745
57	0x3ed4a627	0.41533014
58	0xbecd63ca	-0.40115196
59	0x3e5940f8	0.2121619
60	0x3e929a31	0.28633264
61	0x3eb2c552	0.34916168
62	0xbe15a144	-0.14612299
63	0xbd831f66	-0.06402473
64	0xbd240cd0	-0.04005128
65	0xbd329967	-0.043603327
66	0x3e8edbfb	0.27902207
67	0x3e6ec4a3	0.23317198
68	0xbdac74a7	-0.08420687
69	0x3e591b92	0.21201923
70	0x3efef2f9	0.49794748
71	0x3eed6616	0.46366948
72	0x3d68dbc3	0.056850206
73	0x3e1b3099	0.15155257
74	0x3ec0617b	0.37574372
75	0xbf29f9a3	-0.6639654
76	0x3e4dd45b	0.20100538
77	0x3dd91a78	0.10600752
78	0xbe6d08b6	-0.23147854
79	0xbcab61ad	-0.020920599
80	0x3d60592a	0.054772533
81	0x3e447f01	0.19189073
82	0x3c5a7137	0.013332657
83	0xbc8f4706	-0.017489921
84	0xbca6535a	-0.020303417
85	0x3ee91185	0.4552118
86	0x3f025a31	0.5091887
87	0x3f078316	0.52934396
88	0x3eb32b73	0.34994087
89	0x3da8a1e2	0.08234002
90	0xb8dc1e8d	-0.00010496108
91	0x3eae4d21	0.3404322
92	0xbf354620	-0.7081013
93	0x3d18fac5	0.037348527
94	0x3e93bcff	0.2885513
95	0x3ec1d676	0.37858933
96	0x3eb3b279	0.350971
97	0xbdb2b775	-0.08726398
98	0x3ecc3173	0.39881477
99	0x3e252cb8	0.1613034
100	0xbdd412fc	-0.103551835
101	0xbe75cea1	-0.24004604
102	0x3ccf3db9	0.025297986
103	0xbddd6424	-0.10810116
104	0x3f2098a5	0.6273292
105	0xbe99cd6d	-0.3003954
106	0x3f054323	0.5205557
107	0x3ec76062	0.38940722
108	0xbe36b344	-0.17841822
109	0x3ed8fee0	0.42381954
110	0x3d95a589	0.07306964
111	0x3ecc6f1c	0.3992852
112	0x3f0d0eb9	0.5510059
113	0xbd2a19df	-0.04152858
114	0x3ecbfadc	0.39839828
115	0xbad57735	-0.0016286137
116	0x3e966362	0.29372698
117	0x3f74a4ce	0.9556397
118	0x3eb22531	0.34794
119	0x3f2f4766	0.6846832
120	0xbd702115	-0.0586253
121	0x3ebc40a1	0.36768058
122	0xbec0b811	-0.37640432
123	0xbec0bc6a	-0.3764375
124	0xbec0ac72	-0.37631565
125	0x3f08ea9d	0.5348299
126	0xbccfa048	-0.025344983
127	0x3f0e3245	0.55545455
128	0xbe32820c	-0.17432421
129	0x3edceb47	0.43148252
130	0xbd974f8f	-0.073882215
131	0xbece6196	-0.40308827
132	0x3e31358a	0.1730558
133	0xbe47dd6b	-0.19518058
134	0xbe1884cf	-0.14894412
135	0x3f074c1d	0.52850515
136	0x3e4811fb	0.19538109
137	0xbeb359d0	-0.3502946
138	0x3f143f7c	0.5790937
139	0x3e0e1dd8	0.13878572
140	0x3e5d627f	0.21619605
141	0xbe9874f3	-0.29776725
142	0xbd9726a2	-0.073804155
143	0x3f2b622c	0.66946673
144	0x3f0778b7	0.5291857
145	0x3ec1c4f4	0.37845576
146	0xbd3d7ade	-0.046259753
147	0x3e6f8dbc	0.23393911
148	0xbd8d5c94	-0.069024235
149	0x3c764298	0.015030526
150	0x3e088871	0.13333298
151	0xbd038b07	-0.03211501
152	0x3e8545bc	0.26029766
153	0x3ebbc613	0.36674556
154	0x3eb2d059	0.34924582
155	0x3f4244af	0.7588605
156	0xbeac7e0a	-0.3368991
157	0x3f01fbd0	0.5077486
158	0xbe9c90ea	-0.3057931
159	0xbeb6402d	-0.35595837
160	0xbdc221bb	-0.0947909
161	0x3ef8dd63	0.48606405
162	0x3e9641a7	0.29346964
163	0x3ea1c2d6	0.3159396
164	0x3f10025f	0.5625362
165	0xbe972a15	-0.29524294
166	0x3d89cbf9	0.06728358
167	0x3f037a3a	0.5135838
168	0xbe97c6c1	-0.29643825
169	0x3c48b73a	0.012250716
170	0xbf296387	-0.6616749
171	0x3ed8fc53	0.42380008
172	0xbe39ac31	-0.18132092
173	0xbeec43cd	-0.46145478
174	0x3f75176c	0.95738864
175	0xbe9bbbc0	-0.3041668
176	0x3c32a46b	0.010903458
177	0x3ea0c647	0.31401274
178	0xbbd20ba7	-0.0064100805
179	0x3ee2cf7d	0.44298926
180	0xbdbbbb20	-0.09166551
181	0x3db03530	0.08603895
182	0x3e810c1f	0.2520456
183	0x3e957618	0.2919166
184	0xbf096a86	-0.53678167
185	0xbde65d81	-0.11248303
186	0xbeecbb09	-0.46236446
187	0xbe27e543	-0.1639605
188	0x3f1a03e0	0.6016216
189	0xbd13b356	-0.0360597
190	0xbe2ab4f9	-0.16670598
191	0x3f357165	0.7087615
192	0xbcbadb24	-0.022809573
193	0x3e8bbdfb	0.2729338
194	0xbeaf11c0	-0.3419323
195	0x3c08b5ab	0.008344094
196	0x3eea715f	0.4578962
197	0x3e10ccb6	0.14140591
198	0x3f301013	0.6877453
199	0x3f778b84	0.9669726
200	0xbea68817	-0.32525703
201	0x3f03bbc2	0.5145837
202	0xbe22fd7b	-0.15917008
203	0x3ef41b02	0.47676855
204	0xbec5a2fa	-0.38600904
205	0x3f0cf110	0.5505533
206	0x3d49ecfa	0.049298264
207	0x3e9c11b3	0.30482253
208	0x3e87848a	0.26468307
209	0x3ea5d946	0.3239233
210	0x3ef80ab8	0.48445678
211	0x3f0c9c55	0.54926044
212	0x3e4494bb	0.19197361
213	0xbc55f9c8	-0.013060041
214	0x3f4c0896	0.797006
215	0xbe8a9bdf	-0.27072045
216	0x3ee58807	0.44830343
217	0x3e7fbdd5	0.24974759
218	0x3e5195cc	0.20467299
219	0x3f024f90	0.5090265
220	0xbe1c8c96	-0.15288004
221	0xbef18a41	-0.47175792
222	0xbef18289	-0.47169903
223	0xbef182ba	-0.4717005
224	0xbea406c1	-0.32036403
225	0x3f1c11dd	0.6096476
226	0x3eac9090	0.33704042
227	0x3ea8942b	0.32925543
228	0x3f094014	0.536134
229	0x3e99ae5b	0.30015835
230	0x3ea0d213	0.31410274
231	0xbdd23d7c	-0.102656335
232	0xbdef0b31	-0.116720565
233	0x3f4bf39f	0.7966861
234	0x3df8b795	0.121443905
235	0x3ed02bc2	0.40658385
236	0x3f21bfc8	0.6318326
237	0x3e90f3d0	0.28311014
238	0x3eae4296	0.34035176
239	0x3f15d675	0.5853036
240	0x3ed7f371	0.4217792
241	0xbf7e49e7	-0.99331516
242	0x3e4545a1	0.19264843
243	0x3e16e841	0.14737035
244	0x3eb8b370	0.360744
245	0x3ecad503	0.3961564
246	0x3e6aed8d	0.22942181
247	0x3d5f88a1	0.05457366
248	0x3eb5b87d	0.35492316
249	0x3ef679a9	0.48139694
250	0x3ea51c88	0.3224833
251	0x3c836ab7	0.016042097
252	0x3e9810ca	0.2970031
253	0x3ea53e65	0.32274166
254	0xbdb52e63	-0.08846738
255	0x3f02bd93	0.5107052

l1.bias f4 [8]
0	0x3f5ddf87	0.866692
1	0x3ec0b10e	0.37635082
2	0x3ef1872f	0.4717345
3	0x3e4b8fc3	0.1987906
4	0x3e968071	0.29394868
5	0x3f905d21	1.1278421
6	0x3f1bb6b4	0.6082566
7	0x3f88e124	1.0693707

l2.weight f4 [8, 8]
0	0x3f9be1c5	1.2178274
1	0x3e359949	0.17734255
2	0xbf62ece9	-0.88642746
3	0xbf6cc5e0	-0.92489433
4	0xbebf4638	-0.3735826
5	0x3fad2ffc	1.3530269
6	0x3e6abea7	0.2292429
7	0x3fea5cdd	1.830959
8	0xbf3e1bef	-0.74261373
9	0x3fb2884c	1.3947845
10	0xbeff9bdf	-0.49923608
11	0xbdc595b2	-0.09647693
12	0x3f94c7fb	1.1623529
13	0x3dd73f0e	0.105100736
14	0x3fba275f	1.4543265
15	0x3f2814c9	0.65656716
16	0xbe3c2f2d	-0.18377371
17	0x3ee35a3a	0.44404775
18	0x3fa10dab	1.2582296
19	0xbf2efb0d	-0.68351823
20	0x3c6b136c	0.014347892
21	0x3f2d7e44	0.6777079
22	0xbf265884	-0.64978814
23	0xbddfaf1c	-0.10922071
24	0xbe8e67b8	-0.27813506
25	0x3d86af76	0.06576435
26	0x3f627e62	0.88474095
27	0x3f30f6fc	0.6912687
28	0x3f0a52fd	0.5403288
29	0x3f81f473	1.0152725
30	0xbf931a3b	-1.149238
31	0xbf0ef2c6	-0.5583919
32	0x3cbd78f1	0.023128958
33	0x3eefb4f1	0.46817735
34	0x3eacd82f	0.33758685
35	0x3f2e7c36	0.6815828
36	0x3ece9ad4	0.403525
37	0xbf876081	-1.0576326
38	0x3f42b2e0	0.7605419
39	0xbeaea134	-0.34107363
40	0xbe0ac7d7	-0.13552795
41	0xbd80b310	-0.062841535
42	0xbe82e87a	-0.2556799
43	0x3cc35c30	0.02384767
44	0x3e0cbea8	0.13744605
45	0xbe0ad3e8	-0.13557398
46	0xbe9dd5b4	-0.30827105
47	0xbe7dd6e2	-0.24789003
48	0x3f6a3899	0.9149261
49	0xbeec2a9e	-0.46126264
50	0x3fd2cd8d	1.6468979
51	0xbbaaaf7e	-0.0052089086
52	0xbf49e3b3	-0.78863066
53	0x3d68365f	0.056692477
54	0x3ef905bb	0.48637185
55	0x3f30598f	0.68886656
56	0x3f541ef9	0.8285976
57	0xbf5d95c6	-0.8655666
58	0x3e900af2	0.2813335
59	0x3fced4a3	1.6158642
60	0x3f15499c	0.58315444
61	0x3f455b49	0.77092415
62	0xbd80d304	-0.06290248
63	0xbeafa5ec	-0.34306276

l2.bias f4 [8]
0	0x3f9a3e6e	1.2050302
1	0x3df5dfd6	0.12005584
2	0x3b81b9a1	0.0039588963
3	0x3e50c07e	0.2038593
4	0x3d1b8446	0.037967943
5	0xbd8220d0	-0.06353915
6	0xbe3a2488	-0.18177998
7	0xbe9dee69	-0.30845955

l3.weight f4 [11, 8]
0	0x3f8b2f9a	1.0873902
1	0xbf7c2fb2	-0.9851028
2	0xbfe54a00	-1.7913208
3	0xbfdd4a53	-1.7288307
4	0xbfbb09a9	-1.4612323
5	0xbd659228	-0.05604759
6	0xbd9fd96d	-0.078051426
7	0xbd434f9d	-0.047683347
8	0xbedb6c77	-0.4285619
9	0xbf608408	-0.87701464
10	0xbf63258f	-0.88729185
11	0x3f17a783	0.5923998
12	0xbf4754ff	-0.7786407
13	0x3e8511b9	0.25990084
14	0xbb305159	-0.0026903956
15	0x3ed6918c	0.41907918
16	0x3b706057	0.0036678517
17	0xbdeb09a9	-0.11476452
18	0xbfecd743	-1.8503193
19	0xbf72d60f	-0.9485788
20	0x3da995c7	0.08280521
21	0xbea697e7	-0.32537767
22	0x3efd1af3	0.49434623
23	0xbf96a8c2	-1.1770251
24	0xbfaaba74	-1.3338151
25	0x3efd015c	0.494151
26	0xbf6e80b8	-0.9316516
27	0xbd0ad0ce	-0.033890538
28	0x3f03a73c	0.51427054
29	0xbd610088	-0.054932147
30	0xbf5b8a74	-0.8575814
31	0xbf07fbe6	-0.5311874
32	0xbd8aafaf	-0.0677179
33	0xbf51fa98	-0.82023
34	0xbea0fc97	-0.3144271
35	0xbf8dd74a	-1.1081326
36	0xbf481ad6	-0.7816595
37	0x3e16f22a	0.14740816
38	0x3ef0feda	0.47069436
39	0x3ee4bdec	0.4467615
40	0xbfaec6d5	-1.3654429
41	0xbe18ca89	-0.14921011
42	0x3f396c52	0.7243091
43	0x3f23ea9e	0.6402987
44	0xbf928744	-1.144753
45	0xbe8b09d9	-0.2715595
46	0xbf8abbe0	-1.0838585
47	0xbe62219e	-0.22083136
48	0x3eabbb97	0.33541557
49	0xbff0af69	-1.8803531
50	0x3f99b281	1.20076
51	0x3edd7c09	0.43258694
52	0xbf953762	-1.1657526
53	0x3ea8342b	0.328523
54	0x3e4988cf	0.19681095
55	0xbf4c9790	-0.79918766
56	0x3e90a882	0.2825356
57	0x3f0021c8	0.50051546
58	0xc001dfde	-2.0292888
59	0xbf86a696	-1.0519588
60	0x3e89cb3f	0.26912877
61	0x3e532fce	0.20623705
62	0xbfa5f59e	-1.2965581
63	0xbfc41be7	-1.5321015
64	0x3e3a3fa7	0.18188344
65	0x3e6478e8	0.22311747
66	0xbd714668	-0.058905035
67	0x3d7d89ff	0.06189918
68	0xbfcdf929	-1.6091663
69	0x3d9ce120	0.07660127
70	0xbfb9c02e	-1.4511774
71	0x3d9743c2	0.07385971
72	0x3ea8331e	0.328515
73	0x3e8837aa	0.26604968
74	0x3f575fc3	0.84130496
75	0xbfb17d89	-1.3866435
76	0xc004d886	-2.0757155
77	0xbe254687	-0.16140185
78	0xbd87927e	-0.06619738
79	0xc007698d	-2.1158173
80	0xbf6a719f	-0.9157962
81	0xbf73b934	-0.9520447
82	0xc00d9180	-2.2120056
83	0xbf548fc4	-0.8303187
84	0x3f213e60	0.629858
85	0x3cae45f0	0.021273583
86	0x3e90e8ff	0.28302762
87	0x3efe7edd	0.49706164

l3.bias f4 [11]
0	0x3eef0a7c	0.46687686
1	0xbe2e4c4e	-0.17021295
2	0xbef69d1c	-0.4816674
3	0x3e7b7235	0.24555285
4	0xbeccd549	-0.40006474
5	0x3d196857	0.03745302
6	0x3e9ed66f	0.31022975
7	0x3db0d870	0.08635032
8	0xbe6526f5	-0.22378142
9	0x3dafe6a7	0.08588915
10	0x3e18665e	0.148828
